…
    "# model.add(Dense(20,activation='tanh', activity_regularizer=reg))\n",
    "# model.add(Dropout (0.2))\n",
    "# model.add(Dense(1,activation='sigmoid'))"
   ]
  },
  {
   "cell_type": "code",
   "execution_count": 637,
   "metadata": {},
   "outputs": [
    {
     "name": "stdout",
     "output_type": "stream",
     "text": [
      "Model: \"sequential_41\"\n",
      "_________________________________________________________________\n",
      "Layer (type)                 Output Shape              Param #   \n",
      "=================================================================\n",
      "dense_152 (Dense)            (None, 128)               6272      \n",
      "_________________________________________________________________\n",
      "dense_153 (Dense)            (None, 64)                8256      \n",
      "_________________________________________________________________\n",
      "dropout_108 (Dropout)        (None, 64)                0         \n",
      "_________________________________________________________________\n",
      "dense_154 (Dense)            (None, 32)                2080      \n",
      "_________________________________________________________________\n",
      "dropout_109 (Dropout)        (None, 32)                0         \n",
      "_________________________________________________________________\n",
      "dense_155 (Dense)            (None, 16)                528       \n",
      "_________________________________________________________________\n",
      "dropout_110 (Dropout)        (None, 16)                0         \n",
      "_________________________________________________________________\n",
      "dense_156 (Dense)            (None, 1)                 17        \n",
      "=================================================================\n",
      "Total params: 17,153\n",
      "Trainable params: 17,153\n",
      "Non-trainable params: 0\n",
      "_________________________________________________________________\n"
     ]
    }
   ],
   "source": [
    "model = Sequential()\n",
    "model.add(Dense(128, activation=\"relu\", input_shape = (X_train.shape[1],))) # Hidden Layer 1 that receives the Input from the Input Layer\n",
…
